Internship/IIT Patna/CLIP/clip2.pt (torch, 373782 bytes, 324 tensors)

image_encoder.cls_token f4 [1, 1, 9]
000000 39 1a 90 3f 5e 92 b8 3d 7b a9 5a bf 1d 18 c7 bf
       1.1258003 0.09012292 -0.85414857 -1.5554234
000010 2b 78 cc bf e6 2b 5b 3f 59 ba b2 3e 6d ce bd be
       -1.5974172 0.8561386 0.34907797 -0.37071553
000020 eb 79 50 3f
       0.8143603

image_encoder.projection f4 [9, 32]
000000 77 0d ce 3e 67 ca 25 3f 39 af 73 3f a1 c8 85 3f
       0.40244648 0.64761966 0.95189244 1.0451852
000010 df 33 4d 3e cd e7 e5 3e 97 86 df bf cb 94 63 3e
       0.20039319 0.44903412 -1.7462949 0.22224729
000020 1b 93 b1 bf 2c 12 48 c0 40 6f 54 3d 92 4e 6d bf
       -1.3873018 -3.1261091 0.05186391 -0.92698014
000030 ab 94 c4 be e8 6d 52 bf 04 06 08 c0 11 a6 02 bf
       -0.38394675 -0.82198954 -2.1253672 -0.5103465
000040 3f 45 b4 bd 3a 62 2d 3e d7 36 ef be 52 8c 16 3f
       -0.0880227 0.16932002 -0.46721527 0.5880786
000050 ac 93 25 3f 22 51 78 3e d5 4c a7 3e eb 30 a2 3c
       0.64678454 0.242497 0.32675806 0.019798717
000060 ca 06 cd 3d da 7d 25 3f 64 86 67 3e a5 5c 9c 3e
       0.100110605 0.6464516 0.2260986 0.30539432
000070 d1 a9 4e bd 58 cc 88 3f 24 9d da be fc 46 aa bd
       -0.05045492 1.0687361 -0.42698014 -0.083143204
000080 11 2b 08 c0 8d 9a a2 3f 55 ca 0f 3f 1b 44 51 be
       -2.1276286 1.2703415 0.5616811 -0.20436136
000090 c2 aa 59 3d 6c f3 af 3e 8f 4a 8e bf 23 02 2e bf
       0.053141363 0.34365404 -1.1116503 -0.6797201
0000a0 62 24 25 3f d7 46 a1 3d d0 25 4a 3f b9 31 c0 be
       0.6450864 0.0787484 0.7896395 -0.37537935
0000b0 1b 1a 2d 3e 18 ba 0a 3f 76 e7 ad be 60 e1 27 3f
       0.1690449 0.54190207 -0.33965653 0.6557827
0000c0 b8 93 20 3d c4 e0 e8 3f 8f c2 cf bf 9a a8 9b be
       0.039203376 1.8193593 -1.623125 -0.3040207
0000d0 b8 d8 33 3e 4a 21 f5 be 97 ac f4 3e 66 ad d5 bf
       0.1756314 -0.4787696 0.47787926 -1.6693542
0000e0 15 c9 dd be fc 88 40 bf e3 06 7f 3f 15 13 37 3d
       -0.43317476 -0.7520902 0.99619883 0.044695932
0000f0 ec e4 e8 3f 2a 2f 4d bf ae 59 a9 be 2e ae e5 3f
       1.8194861 -0.8015009 -0.33076233 1.794378
000100 6b 88 50 3f 82 22 8a be 57 82 e6 be 0f 4e a9 3d
       0.8145816 -0.26979452 -0.45021316 0.082668416
000110 c7 fe f6 3e 4f 72 13 3e 9c 35 d6 3e 61 5a 85 be
       0.48241255 0.14399074 0.41837776 -0.26045516
000120 c1 87 d3 3f 7e c7 05 3d 76 3a 19 bf 0e 93 02 40
       1.6525804 0.032660954 -0.5985483 2.0402255
000130 1a 55 60 3f a3 23 ef bf 36 23 a6 bf 39 81 01 bf
       0.87629855 -1.868275 -1.2979496 -0.50587803
000140 91 c3 bb 3d 8d 59 79 bf cd 21 aa 3d 8b b4 c3 bf
       0.09168161 -0.9740227 0.08307228 -1.5289472
000150 60 84 ac 3f 21 3b 4e 3f 52 f0 1a 3f 1f 0d 78 3f
       1.3477898 0.80558974 0.6052295 0.9689502
000160 aa d0 44 3f de 02 b4 bc 3b b6 56 bf 5b 9e c7 be
       0.76880896 -0.021974023 -0.8387181 -0.38988003
000170 7f ad 1a bf 7b 20 94 3f 75 ba a1 3e 34 88 30 be
       -0.60420984 1.1572412 0.31587568 -0.17239457
000180 6e 45 3f bf 9e 48 49 3f 92 da 83 be b5 f8 7f 3f
       -0.74715316 0.7862643 -0.25752693 0.9998887
000190 56 e3 2a bf 7a 2e 70 3f 73 d8 08 3f c7 98 05 3e
       -0.6675314 0.9382092 0.53455275 0.13046561
0001a0 cb 5e db bf 94 94 08 bf a4 60 50 bf b9 91 df 3f
       -1.7138304 -0.5335171 -0.8139746 1.7466346
0001b0 ae 8c c0 bf 93 be 21 3e f1 48 03 bf a9 e0 20 3f
       -1.5042932 0.15795355 -0.51283175 0.62842804
0001c0 92 d5 c0 3f 15 f1 8d bf 50 73 6d bf 2a 4e 28 3f
       1.5065176 -1.1089197 -0.9275408 0.6574427
0001d0 c6 dc 3f bf 76 16 b4 be 8f 57 fb 3d 33 fa b9 bf
       -0.7494625 -0.35173386 0.1227256 -1.452948
0001e0 d5 40 28 40 a7 07 1f 3d fe e2 0d bf e9 39 52 be
       2.628957 0.038825657 -0.5542449 -0.20529903
0001f0 e5 7e f1 bd b5 fb a1 3f 54 ec 29 3f 3a 1d 38 3f
       -0.11791781 1.265494 0.66376233 0.71919596
000200 87 8c c7 3e 6e bc 36 bf 7f 51 3b 3f 14 60 fe be
       0.389744 -0.7138127 0.7317123 -0.49682677
000210 bf 9b 7c be b2 0f 30 3f 1a 19 e9 3c 72 83 8a be
       -0.24668787 0.6877395 0.028454352 -0.2705341
000220 70 75 80 3f de f0 a3 3d df 5e 80 3f 44 4a 94 3f
       1.0035839 0.08004926 1.0028952 1.1585164
000230 f2 96 0e bf 95 8b b1 3f d7 11 96 3d 56 91 9a 3e
       -0.55699074 1.3870722 0.073276214 0.30189008
000240 0f 39 53 be 1e 98 95 bf f5 0d a1 3e c4 ab 35 3d
       -0.20627235 -1.1687047 0.3145596 0.04435326
000250 93 4d 74 3f 07 c7 d3 3f 85 be 02 c0 6e 3e 84 3f
       0.9543087 1.6545113 -2.0428784 1.0331552
000260 bf 22 22 40 c5 89 f6 3d ae 59 d4 3f 5c 9d b1 bf
       2.5333707 0.12037996 1.6589868 -1.3876147
000270 18 4a 59 be 6a 98 f4 3e bb c5 30 bf 91 c4 00 bf
       -0.21219671 0.47772533 -0.6905171 -0.50299937
000280 69 a9 e4 3e 0a 67 76 3d fc 56 96 3e e5 a8 f1 3e
       0.446605 0.06015686 0.2936324 0.4719917
000290 f5 2d 23 bd f0 84 fc 3f 36 af da 3e f4 5a d8 3f
       -0.03983875 1.9728069 0.427118 1.6902757
0002a0 6e 95 df 3f 3a 61 80 3d 03 89 32 3f 97 01 5c be
       1.7467477 0.062685445 0.69740313 -0.21484981
0002b0 26 28 53 3f d6 b9 b9 3e 1b f2 04 bf 53 8c 28 bd
       0.82483137 0.36274594 -0.51931924 -0.04114945
0002c0 6c 7f f1 bf f2 bf a5 be db 91 33 be 1a d5 bf be
       -1.8867011 -0.32373005 -0.17536108 -0.3746727
0002d0 33 05 68 be ea 81 20 3e 5e 3f 28 bf 11 d5 41 3f
       -0.22658233 0.15674558 -0.6572169 0.7571574
0002e0 e3 90 cd 3e 43 0c 8d 3e e9 4e 9f 3f 97 8f dc 3f
       0.40149602 0.27548417 1.2445956 1.723132
0002f0 5c aa bc 3f cb 0a 13 bf 9f 0b 29 bd 9b 0f d7 bb
       1.473949 -0.57438344 -0.04127085 -0.0065631396
000300 a6 98 3b bf f0 84 6c 3f 0a 8b 27 3f f2 37 a4 bf
       -0.732798 0.92390347 0.6544653 -1.2829573
000310 ed 1b 4b 3e fb ff 5f 3f 2a a0 92 3e 68 70 ad 3d
       0.19834872 0.8749997 0.2863782 0.084687054
000320 d6 02 88 bf a1 0c 8a bf 9b cb b2 3f 77 41 c8 3f
       -1.0625865 -1.0785104 1.3968385 1.5644978
000330 99 f1 97 bf 84 80 fe bf 41 84 00 3f 22 64 e2 3e
       -1.1870605 -1.988297 0.50201803 0.4421702
000340 bd 72 d9 bf 3d 44 ae 3f b4 b9 97 bd 1f 73 b8 bf
       -1.698814 1.3614575 -0.07408467 -1.4410132
000350 11 28 42 be 34 7e b0 3f 9c c1 36 bd a6 ea d5 3e
       -0.18960597 1.3788514 -0.044618234 0.41780585
000360 ab a5 e9 be 17 00 a5 bf 03 ec c8 bf 8f 5d 82 3f
       -0.45634207 -1.2890652 -1.5697025 1.0184802
000370 e7 6c 9a 3f 72 c8 3d bf 05 d5 00 bf ab 24 9f 3f
       1.2064484 -0.7413398 -0.5032504 1.2433065
000380 1b 04 cf be be e3 b4 be 71 be 9a 3e 5e 45 cb 3e
       -0.4043282 -0.35330003 0.3022342 0.3970136
000390 64 1e 4a bd 9a 50 23 be 78 2f ee 3e 45 13 98 3f
       -0.04934539 -0.15948716 0.4652059 1.188088
0003a0 71 39 c3 be 5b 16 4f 3f 34 f8 8e 3e 98 65 d2 be
       -0.38129762 0.80893487 0.2792374 -0.41093135
0003b0 b8 32 5c 3f 58 0e 94 bf a1 26 ef bf 31 5d 87 be
       0.8601489 -1.1566877 -1.8683664 -0.26438287
0003c0 ee 10 5e be 9e a2 c9 3f 20 82 a0 3f bd 3f 2f be
       -0.21686146 1.5752752 1.2539711 -0.17114158
0003d0 a0 65 9b 3f 0b 71 dd bf 69 b0 9a be 98 f1 46 bf
       1.2140388 -1.7300123 -0.30212715 -0.7771239
0003e0 52 a8 27 bf 27 fe 88 bf 86 2e 91 bf 4d 86 0b bf
       -0.6549121 -1.0702561 -1.1342323 -0.545018
0003f0 b4 61 72 3f 9f 0a 3f bf 62 ec ab be 97 3f 98 bf
       0.94680333 -0.7462558 -0.33578783 -1.1894406

image_encoder.linear_project.weight f4 [9, 1, 14, 14]
000000 47 7c 4e 3e 86 b6 18 3e 6b 25 46 3d f1 d7 39 be
       0.20164596 0.14913377 0.04837553 -0.18148781
000010 45 34 76 be 8b 41 f0 3c 25 6a a9 3c b8 3d 52 bd
       -0.24043377 0.029328128 0.020680496 -0.05132839
000020 92 8b e0 bd fa 75 9d bd 4e 40 8c bd ed ba 1a bd
       -0.10964121 -0.07688518 -0.06848203 -0.037775923
000030 1d 1c bb 3d 66 4a ad 3d b4 88 cc 3d ca 19 ea 3d
       0.091362216 0.08461456 0.099870116 0.114307
000040 6e b3 81 3d e4 66 96 3d 0a df 6c bd f2 b1 85 bd
       0.063330516 0.073438436 -0.057829894 -0.06528081
000050 8b bf 61 3d af db 9e 3d cd f2 a2 bb dd 01 9e 3c
       0.05511431 0.07756745 -0.0049727918 0.019287998
000060 e7 dd eb 3d e4 b3 f8 3d 47 cb 9f 3d 60 ea dc 3d
       0.11516934 0.121436864 0.07802444 0.10786891
000070 77 b4 78 3c 76 7b dc 3d be 26 38 3c 5d b3 59 bd
       0.015179745 0.10765736 0.011239706 -0.05314957
000080 ef 5c 62 bc 84 47 65 3d bc 16 a8 bc 12 f7 84 bd
       -0.013816102 0.055976406 -0.020518653 -0.064924374
000090 62 b0 45 bd 93 c8 80 3c c1 4b 7e 3d bd e9 ae ba
       -0.048263915 0.015720641 0.062083963 -0.0013344806
0000a0 44 c2 df bc 0c f6 3c bc 5d c4 10 bd a0 41 1d 3d
       -0.027314313 -0.0115332715 -0.035343517 0.038392663
0000b0 c6 8e df 3c 20 b1 c4 bc dc e9 13 bb 16 26 d1 bc
       0.02728976 -0.024010241 -0.002256981 -0.025530856
0000c0 15 75 9a bd 48 5a 5e 3c c8 26 7c bd fb 8c 06 bc
       -0.07541863 0.013571329 -0.061560422 -0.008212323
0000d0 9d 39 71 3c 4d e4 f4 3b c8 4e bc bd 39 82 c1 3b
       0.014723209 0.0074735046 -0.09194714 0.0059054163
0000e0 30 41 d5 bc 12 1a 71 3d 06 de fa 3d 01 73 b1 bc
       -0.02603206 0.058862753 0.12249379 -0.021661283
0000f0 f9 24 c1 bd 29 d2 ea bc 2d 65 28 bd 91 a7 c7 3c
       -0.0943088 -0.028664665 -0.041112114 0.024371894
000100 94 69 32 3d 85 d6 85 bd 08 ad 0b 3d eb 50 20 3d
       0.04355772 -0.06535057 0.034100562 0.03913967
000110 e1 4e a4 3c c3 97 a5 3d 6d 92 8e bd f3 00 af 3d
       0.020057144 0.08085587 -0.06961522 0.08545103
000120 1c c6 63 3d 22 e2 2e 3d c4 2f 19 bd aa 2d 6b bc
       0.055608854 0.042696126 -0.03739907 -0.014354149
000130 d4 ef 61 3c fb d3 fb ba 9d 36 07 bd ca 86 72 3d
       0.01379009 -0.0019212955 -0.033011068 0.059210576
000140 b9 b9 b9 3d 01 6c 8c bc ce d0 97 3d 57 76 69 3d
       0.09068627 -0.017141344 0.07412873 0.056997623
000150 a8 e9 bb 3c df 8e 38 3d 22 0e b8 3c 8e bb 83 bc
       0.022938564 0.045058127 0.022467677 -0.016080644
000160 d4 50 c5 bc f0 b9 3e bd 27 a5 30 bc c5 53 49 3d
       -0.024086393 -0.046564043 -0.010781563 0.049152154
000170 2a 27 f1 3c 9f cd 49 3d 40 19 e4 3d 8f 7e b9 3d
       0.02943762 0.04926836 0.111376286 0.09057342
000180 6f a9 17 3c 44 d5 ce bc 7a 8c ff bc 97 10 48 3d
       0.009256705 -0.025248177 -0.031194914 0.048843946
000190 d3 6d ab 3d b4 6f d8 bc 93 f8 c4 bd 09 e5 ac bd
       0.08370557 -0.026420452 -0.09617724 -0.084421225
0001a0 e5 4c 13 3d 92 95 ba bc 3c f8 af 3c a3 c2 2a 3d
       0.035962004 -0.022776399 0.021480672 0.041689526
0001b0 15 28 00 3d 59 e5 f5 3c d1 3d b5 bb a4 9b 32 bc
       0.031288225 0.030016588 -0.0055310507 -0.010901365
0001c0 0b 78 61 bc c6 d8 30 bc 8c 9e 95 3d 6a de 1c bd
       -0.013761531 -0.01079387 0.07305631 -0.038298048
0001d0 59 cd 6f bd 54 5c 74 bd ab 76 06 bd 07 29 66 bc
       -0.058545444 -0.059658363 -0.032828014 -0.014047868
0001e0 db 63 5b 3c da 7e d6 3d af a6 66 3d 50 88 25 3d
       0.013390507 0.10473414 0.056311306 0.0404132
0001f0 3b 9f 95 3c b8 42 ce bc 0d a9 15 3d e1 3e 99 3c
       0.018264404 -0.025178298 0.036538173 0.01870674
000200 91 2b cc 3a a2 99 01 bd 86 d3 dd 3b 07 ef 09 bc
       0.0015576949 -0.031640656 0.0067696003 -0.008418805
000210 33 a6 d9 bd 1e 50 1e bd 14 bf 11 3d 39 0b 33 3d
       -0.10627403 -0.038650624 0.035582617 0.043711875
000220 95 b4 a3 3c f1 c9 0d 3c be b5 d5 3b 20 b7 14 bd
       0.01998357 0.008654104 0.0065219095 -0.036307454
000230 6c 79 69 3c 4e 71 04 bd b0 21 fb 3c 10 ef 2d bd
       0.014250141 -0.03233462 0.030655712 -0.042464316
000240 ac f3 e6 3c 86 90 89 3b 74 26 8c 3a 13 a5 a5 3b
       0.028192364 0.0041981367 0.0010692612 0.005055079
000250 b6 44 3b bc 5e ba 8c bc b5 f1 5a 3b cf c6 72 3d
       -0.011429956 -0.01717871 0.0033408229 0.05927163
000260 40 5e 71 3d a9 25 d8 bd 8b 9a 44 3d 53 8b ab 3c
       0.058927774 -0.10554058 0.047998946 0.020940458
000270 7a 43 40 bd 17 a7 ca bc c2 df 2f 3b b8 e9 6c bd
       -0.04693935 -0.024737878 0.002683625 -0.05784008
000280 2a c9 b4 bc 04 74 65 bd 12 74 6d 3b 05 90 b8 3c
       -0.022068579 -0.056018844 0.0036232513 0.022529611
000290 e2 35 20 3d 9a 27 00 3e 8d 3d 30 3d bc 8a 73 bd
       0.039113887 0.12515107 0.04302745 -0.05945848
0002a0 60 e5 f4 bc eb ce e4 3c 7d a5 b1 3b 13 4e 9f bd
       -0.02989453 0.027930697 0.005421339 -0.07778563
0002b0 98 3b ce 3c ab 03 b9 bc f5 26 bd 3b 7c 75 03 3d
       0.0251749 -0.022584757 0.0057724663 0.032094464
0002c0 8a 8e 88 3c bd 97 b8 3c 7b 01 65 3d 98 a7 9b 3c
       0.01666953 0.022533292 0.055909615 0.019000813
0002d0 aa c4 c2 3d 54 c1 18 3e c8 ff cc bd ec f8 a9 3c
       0.09510167 0.14917499 -0.10009724 0.020748578
0002e0 7d da ac bd 6d 2a 37 3d 4e 0e 00 3d 7a 63 05 3d
       -0.08440111 0.044718195 0.031263642 0.03256557
0002f0 da 0f 8e bc 4d cb 98 3d c3 29 ab 3d e3 b2 78 3d
       -0.017341543 0.074606515 0.08357575 0.060717475
000300 9e c1 7a 3d 49 2e 6b 3d 03 80 69 3d 27 e8 31 3e
       0.061219804 0.057417188 0.057006847 0.17373715
000310 75 d3 44 bd 73 4a 57 bd 62 1e 92 3d c5 ce 85 3d
       -0.048053224 -0.052561235 0.07134701 0.06533579
000320 93 25 ac 3c aa 42 4e 3d 6e f2 1d bd 35 bd 93 bd
       0.02101401 0.050356545 -0.038561277 -0.07213823
000330 55 d9 87 bd 05 94 50 bd 16 7c a8 bc 51 95 10 be
       -0.0663325 -0.050922412 -0.020566981 -0.1411946
000340 4e d4 22 be 31 fc 99 3c ef 27 d7 3d 1c 94 26 3d
       -0.159013 0.018797012 0.105056636 0.04066859
000350 1b 79 de 3b c3 d1 ed 3d 9e b0 07 3e 31 f6 a7 3d
       0.0067893392 0.116122745 0.13250968 0.08201254
000360 89 0c c7 3c 18 9a 47 bd 9d ed c3 bd e2 69 32 bd
       0.02429797 -0.04873094 -0.095668055 -0.04355801
000370 76 04 88 bd 70 70 0a bd 45 d1 81 bd 78 1d 02 bd
       -0.06641476 -0.033798635 -0.06338743 -0.031766385
000380 e9 41 7f 3d 55 c9 ed 3c 36 d2 bf bc 59 a6 81 3d
       0.062318716 0.029026667 -0.023415666 0.063305564
000390 df 8e d5 3d 36 c7 70 3c 15 4a 87 bc a1 f7 26 bd
       0.10427641 0.014695933 -0.016514817 -0.0407635
0003a0 f7 8f c5 bd 14 02 e7 bd b4 93 99 bc e1 53 19 bd
       -0.096466 -0.11279693 -0.018747188 -0.03743351
0003b0 e0 c2 79 bd 22 29 a3 3d d9 16 09 3c f5 d1 2c 39
       -0.060976863 0.0796683 0.008367264 0.00016481413
0003c0 f7 7e 44 3c 37 a6 f6 3b 15 df 85 3d 58 75 49 b7
       0.011993161 0.0075271386 0.0653669 -1.2007855e-05
0003d0 e9 e8 b7 bd 25 29 8c bd 57 99 d8 bd 6d 6e b4 bd
       -0.08979971 -0.06843785 -0.10576122 -0.088101245
0003e0 c8 6a 96 bc 6a c7 bf 3c 90 43 83 bd 21 ce 32 3d
       -0.018361464 0.023410518 -0.06409371 0.04365361
0003f0 1a f1 bf 3d 8d 50 b9 3c fe 8a e4 3c e6 4e 48 3d
       0.09372158 0.022621417 0.027898308 0.04890337

image_encoder.linear_project.bias f4 [9]
000000 ee 1b 94 3d 25 17 90 3d 38 88 1e 3d 5e dd 0b 3d
       0.0723189 0.070356645 0.038704127 0.03414666
000010 72 50 42 3d b2 56 10 3c a6 c0 a4 3c f7 76 1e bd
       0.04744 0.008809732 0.020111393 -0.038687672
000020 d7 85 31 bc
       -0.010835133

image_encoder.positional_embedding.pe f4 [1, 5, 9]
000000 00 00 00 00 00 00 80 3f 00 00 00 00 00 00 80 3f
       0.0 1.0 0.0 1.0
000010 00 00 00 00 00 00 80 3f 00 00 00 00 00 00 80 3f
       0.0 1.0 0.0 1.0
000020 00 00 00 00 a4 6a 57 3f 40 51 0a 3f 26 e3 03 3e
       0.0 0.84147096 0.5403023 0.12879619
000030 28 de 7d 3f fb a4 88 3c e2 f6 7f 3f 63 31 0d 3b
       0.9916711 0.016680231 0.9998609 0.002154433
000040 d9 ff 7f 3f e1 e2 91 39 b7 c7 68 3f 33 11 d5 be
       0.9999977 0.00027825593 0.9092974 -0.41614684
000050 f0 c9 82 3e b8 81 77 3f 1d a0 08 3d 88 db 7f 3f
       0.2554469 0.9668231 0.03335582 0.99944353
000060 4e 31 8d 3b 64 ff 7f 3f e1 e2 11 3a c3 81 10 3e
       0.004308856 0.9999907 0.00055651186 0.14112
000070 26 70 7d bf 91 74 c1 3e cf 05 6d 3f 02 e4 4c 3d
       -0.9899925 0.37784246 0.9258699 0.050022133
000080 f5 ad 7f 3f bf c9 d3 3b a2 fe 7f 3f 50 d4 5a 3a
       0.9987481 0.006463259 0.99997914 0.0008347677
000090 cf bd 41 bf 30 55 27 bf 39 e6 fc 3e 24 97 5e 3f
       -0.7568025 -0.6536436 0.49394396 0.8694937
0000a0 a7 8c 88 3d 2b 6e 7f 3f f8 30 0d 3c 91 fd 7f 3f
       0.06667452 0.9977748 0.008617632 0.99996287
0000b0 df e2 91 3a
       0.0011130235

image_encoder.encoder.0.ln1.weight f4 [9]
000000 3b 84 8a 3f a8 c8 81 3f 58 24 5a 3f 84 19 87 3f
       1.0821604 1.013936 0.85211706 1.0554662
000010 55 fe 84 3f 2b d5 8e 3f ff 4c 81 3f b1 04 82 3f
       1.0390116 1.1158804 1.0101622 1.0157682
000020 fd 88 86 3f
       1.0510556

image_encoder.encoder.0.ln1.bias f4 [9]
000000 f9 2e 2a bd 6c f6 08 3d a9 30 56 3c 4b c8 13 bc
       -0.041548703 0.03343813 0.013073125 -0.0090199215
000010 59 b6 c3 3b 9b cf 04 3d c3 5e b1 3b c0 f8 3c bb
       0.0059726653 0.03242455 0.005412908 -0.002883479
000020 d9 b3 ae 3c
       0.021325992

image_encoder.encoder.0.mha.W_o.weight f4 [9, 9]
000000 94 fc b6 be 38 a5 8c 3e b4 57 37 be a6 e8 a1 3e
       -0.35739577 0.27469802 -0.1790455 0.3162281
000010 09 a5 a8 be da fd 18 bc 19 bb 37 be 19 74 33 be
       -0.32938412 -0.009337867 -0.17942466 -0.17524756
000020 19 3f 84 3e 06 41 f3 3d a0 1e 3b 3e 82 42 2d 3d
       0.2582939 0.118776366 0.18273401 0.042299755
000030 ed 32 a7 bd d7 f2 60 3e 23 3f b1 bd 39 ac 68 3e
       -0.0816401 0.21967636 -0.086546205 0.22721948
000040 d2 d7 35 3e 00 df c2 3d aa da 54 3d fa e3 45 be
       0.1775811 0.0951519 0.051966347 -0.19325247
000050 50 3f 57 3e 50 6d 23 be 33 d5 b0 bc 96 50 78 3e
       0.21020246 -0.15959668 -0.021586036 0.24249491
000060 14 d2 8b 3d 10 3f 6d 3e d1 e7 c9 bd e5 48 d9 bd
       0.068271786 0.23168588 -0.098586686 -0.10609607
000070 ea dc 73 bd 0f df 96 3e 27 3b 9d be fd 2f 23 be
       -0.059536852 0.29467055 -0.30709192 -0.15936275
000080 f3 62 98 be f4 32 05 3e 53 88 b0 be 2d ff 8f 3e
       -0.29762992 0.13007718 -0.34479007 0.2812437
000090 71 73 90 be 77 86 86 be cc 96 9d bd a7 9f e7 3d
       -0.28213075 -0.26274464 -0.07694778 0.11309748
0000a0 ea 15 50 3c dc f7 73 3d 77 d0 3c 3e 54 77 54 3d
       0.012700537 0.05956255 0.18438898 0.051871613
0000b0 45 dc 73 3e d7 79 5d 3d 7e 72 a3 3d 17 50 63 3d
       0.23814495 0.054071274 0.07980822 0.0554963
0000c0 b3 4c 94 be f1 49 46 be ab 95 c9 bd 27 db c6 3d
       -0.28964767 -0.19364144 -0.09843 0.09709769
0000d0 81 a0 81 be 82 ba 96 be de 82 35 3e fa 17 02 3d
       -0.25317767 -0.2943917 0.17725703 0.031761147
0000e0 0f 42 a6 bd 0e 41 74 bd 00 54 8a 3e df 67 59 3c
       -0.081180684 -0.059632353 0.27017212 0.013269394
0000f0 f6 7e 3c 3e 92 48 11 be 8d c8 f2 bd ca 26 59 3c
       0.18407807 -0.1418784 -0.11854658 0.013253877
000100 1d 3a 49 3d df ef 8e 3e 0e 73 2e 3e 5e ce 36 bd
       0.049127687 0.27917382 0.17036077 -0.0446304
000110 70 69 66 3e 40 c2 66 bd a6 ae 95 3c 8e 10 70 3e
       0.22501159 -0.056337595 0.018271755 0.23443815
000120 30 d3 a3 3e 01 6d 42 bd d2 56 a8 3e da b1 1a 3c
       0.3199706 -0.047467235 0.3287874 0.009441817
000130 cc 67 4d 3e f0 c5 0d be a5 60 80 be 83 bc 9a 3d
       0.20059127 -0.13845038 -0.25073734 0.07555487
000140 ec 4e 64 3e
       0.22295731

image_encoder.encoder.0.mha.W_o.bias f4 [9]
000000 11 e2 29 bc eb 72 0f 3c 27 4c 80 3e 0d 3b a1 3e
       -0.01036884 0.008755426 0.250581 0.31490365
000010 40 cf f2 bd 64 15 7e 3e 0b 22 18 3c cf 25 73 be
       -0.11855936 0.24812847 0.00928546 -0.23744892
000020 6a a0 1e 3e
       0.1549088

image_encoder.encoder.0.mha.heads.0.query.weight f4 [3, 9]
000000 dc 36 cb 3d 6b 54 d5 3d 1d 0f 06 bf f1 2d bd bd
       0.09922573 0.10416492 -0.5236681 -0.09237278
000010 79 d9 41 be 7b 4f ca bd 2d 93 5f be 52 f2 e5 be
       -0.18930615 -0.09878441 -0.21833487 -0.44911438
000020 1c ba 95 3e c5 83 b5 3c df 70 dc 3c ce d7 80 3e
       0.29243553 0.02215756 0.02690929 0.25164646
000030 45 c3 81 3e 67 6a 6d 3e f3 19 c2 bc 0a 40 1e 3e
       0.2534429 0.2318512 -0.023694014 0.15454116
000040 15 20 8d 3e b2 39 2f 3d e8 9a 00 bf 64 4f 0e bf
       0.2756354 0.042779632 -0.5023637 -0.5558989
000050 b6 30 e8 3d 7c 57 6a 3e 62 86 07 3e 1e 18 61 be
       0.11337416 0.22884935 0.13234857 -0.21981856
000060 a9 2b d9 3e 53 75 71 bd fc c5 59 bd
       0.42416123 -0.05894978 -0.05316733

image_encoder.encoder.0.mha.heads.0.query.bias f4 [3]
000000 37 32 97 3e 65 85 17 bd 4c cc 82 3e
       0.29530498 -0.03699245 0.2554649

image_encoder.encoder.0.mha.heads.0.key.weight f4 [3, 9]
000000 ff a7 0f bd cf 51 19 bc f5 ac e6 bd 8f 11 db be
       -0.035072323 -0.009357884 -0.11263458 -0.42786834
000010 43 6c e4 3e d7 09 a4 be 29 7e 9b bc e6 0a c7 3e
       0.44613847 -0.32038757 -0.018981056 0.38875502
000020 92 0b 8b bd 6b f1 cc 3d 03 73 32 be 99 a8 86 3d
       -0.06789316 0.10006984 -0.17426686 0.06575126
000030 62 fa 9c 3e 35 d4 d6 bd 5c 31 dc 3d bc 44 b1 bd
       0.30659777 -0.10489694 0.10751602 -0.08655688
000040 11 a7 90 be fe 86 95 ba 00 e2 2a 3d 7c 00 47 3d
       -0.28252462 -0.0011408029 0.041719437 0.048584446
000050 2c 70 61 be c7 ce fc 3d ab c4 bc be 59 07 1a bd
       -0.22015446 0.12344127 -0.36868796 -0.037604664
000060 b7 11 05 3c 70 22 04 bf b8 aa 11 3d
       0.008121899 -0.5161505 0.0355632

image_encoder.encoder.0.mha.heads.0.key.bias f4 [3]
000000 c8 9d db bd 99 1f 0b 3e 7b 1c 88 3e
       -0.10723454 0.13586272 0.2658423

image_encoder.encoder.0.mha.heads.0.value.weight f4 [3, 9]
000000 0c ae 87 be 74 fd b4 bd ef e4 17 bd 5a 08 b2 be
       -0.26499975 -0.08837405 -0.037083562 -0.34771997
000010 ec f9 9f bd f4 9a 54 3b 29 c8 bc 3d 19 89 36 be
       -0.07811341 0.0032440992 0.09217865 -0.17825736
000020 bc 87 c1 bd d3 9d cc bc 3a 48 be 3c 62 ac 9c 3e
       -0.094497174 -0.0249776 0.0232278 0.30600268
000030 69 44 71 3e 6d d2 bc 3e 6d e5 28 be 70 e5 16 be
       0.23561253 0.36879292 -0.16493769 -0.14735961
000040 d1 f3 a5 3c 0b d7 98 3e f7 26 8c be da 23 a4 bd
       0.020257862 0.29851565 -0.27373478 -0.08014651
000050 35 79 3d 3c c8 95 a4 3b e2 42 a5 3d d3 fc 6c be
       0.011564543 0.005022738 0.080693975 -0.2314332
000060 7e 3e 84 3e 44 11 0e be 11 6c b3 3e
       0.25828928 -0.13873774 0.35043386

image_encoder.encoder.0.mha.heads.0.value.bias f4 [3]
000000 00 41 50 3e 65 39 f9 bc 76 01 57 3c
       0.20337296 -0.030422876 0.013122907

image_encoder.encoder.0.mha.heads.1.query.weight f4 [3, 9]
000000 ac 1b ae 3e 23 a7 03 bf 52 dd 58 3e e0 cd 9a 3e
       0.34005487 -0.51426905 0.21178177 0.30235195
000010 40 21 ee 3d 7f d9 50 be 7d 48 8f 3d 9b 9a 46 bd
       0.11627436 -0.20395468 0.06996248 -0.048487287
000020 ac 6c 0f bf 8c 28 92 3e b0 1b 7f bd f4 e0 a1 be
       -0.56025195 0.2854656 -0.062282264 -0.31616938
000030 7e 41 8b be 4a d9 b8 be e6 22 27 3e a9 18 1d be
       -0.27198404 -0.36103278 0.16321906 -0.15341438
000040 20 2f ab 3d c9 6e ac 3e 43 58 83 3e 99 d5 32 be
       0.08358598 0.33678272 0.25653276 -0.17464294
000050 63 05 5f 3e 25 8a c6 3d 39 be 89 bd 7d b6 d4 3e
       0.21779399 0.09694318 -0.06725735 0.41545478
000060 49 f7 b9 3c f2 c9 a6 bd db 91 21 3e
       0.022700923 -0.08143987 0.15778296

image_encoder.encoder.0.mha.heads.1.query.bias f4 [3]
000000 ce b6 fc bd 3b 46 c6 3d d5 95 f3 3d
       -0.12339555 0.09681364 0.118938126

image_encoder.encoder.0.mha.heads.1.key.weight f4 [3, 9]
000000 80 75 9b 3e 85 bc ee 3d 45 27 14 be 7d e5 01 3d
       0.30363083 0.11657051 -0.14468105 0.031712998
000010 ad 04 f9 be 46 a1 1d 3f 53 85 00 bf 8a e7 cf be
       -0.4863638 0.6157421 -0.50203437 -0.40606338
000020 82 d0 86 3e 60 71 c9 be 50 8f e0 3e 56 7d 33 be
       0.26330954 -0.3934431 0.4385934 -0.1752828
000030 13 8b a5 3c d6 23 89 3d 45 f4 22 3e 26 36 97 3e
       0.020207917 0.06696288 0.15913494 0.295335
000040 49 04 b3 bd e4 38 e8 bd a4 3e cc be ee 31 4c be
       -0.08741052 -0.11338976 -0.3989154 -0.19940922
000050 f8 13 11 3e bb 61 75 be cd 91 01 3e 3d 3a 1d 3c
       0.14167774 -0.23963062 0.12653275 0.009596405
000060 e4 a2 8b 3e 72 0f 91 be 6e bf 82 3e
       0.27272713 -0.28332096 0.25536674

image_encoder.encoder.0.mha.heads.1.key.bias f4 [3]
000000 28 24 76 bd 20 63 79 be ba cd 45 be
       -0.060093075 -0.2435422 -0.1931676

image_encoder.encoder.0.mha.heads.1.value.weight f4 [3, 9]
000000 34 e7 bc bd dc 4f 3d 3e 39 30 9c 3c 40 e7 84 3e
       -0.09223786 0.18487495 0.019065963 0.2595768
000010 10 5d 2b be 4c a5 0f 3d 79 ab de bd 97 8c 38 3e
       -0.1673472 0.03506975 -0.108725496 0.18022381
000020 f6 88 80 3e 37 9e 8c be 3d 6e f4 bd 0f 03 f1 3d
       0.25104493 -0.27464458 -0.11935089 0.117681615
000030 c1 40 19 be 99 85 83 3c e8 e1 5e 3e aa e0 5b 3e
       -0.14966108 0.016054915 0.21765864 0.21472421
000040 02 9a 68 3e ef d3 4c 3e 5e 81 ad be 9d 8c 86 3e
       0.22715 0.20002721 -0.33887762 0.26279154
000050 f1 8d 32 be 9d a3 94 3e 67 c1 8f be 9f 25 91 be
       -0.17436959 0.29031077 -0.28077242 -0.28349015
000060 77 c3 5f 3e 6a f7 82 3e 90 c1 7e 3e
       0.21851908 0.25579387 0.24878526

image_encoder.encoder.0.mha.heads.1.value.bias f4 [3]
000000 51 f1 8b be 25 b1 0d 3e c7 82 44 3e
       -0.27332547 0.13837107 0.19190513

image_encoder.encoder.0.mha.heads.2.query.weight f4 [3, 9]
000000 2c a1 e4 3d 2a 44 d3 3e fd a9 aa be c9 8b d4 3c
       0.111635536 0.41262943 -0.33332816 0.025945561
000010 4d 3d 78 be d9 99 af 3d 28 43 2b be 42 5f 2a bc
       -0.24242134 0.08574266 -0.16724837 -0.010398688
000020 4b 52 e7 3c 7d 0f 8c 3d 2b 9d 2b 3e 13 47 8a be
       0.028237483 0.06838892 0.16759174 -0.2700735
000030 29 46 49 3e 09 a0 73 be 98 ef 68 3e a0 12 af 3d
       0.1965567 -0.23791517 0.22747648 0.08548474
000040 e9 5c b0 3e 3b 23 99 bd 1a 20 85 be 48 a3 f6 3d
       0.34445885 -0.07477423 -0.26001054 0.12042862
000050 2c 3b 8d bd c5 a2 b8 be 60 a4 4a be 79 97 9d be
       -0.06896052 -0.36061683 -0.19789267 -0.30779627
000060 89 de c5 3d 73 81 83 3d cb ea 56 3d
       0.09661586 0.06421175 0.05247001

image_encoder.encoder.0.mha.heads.2.query.bias f4 [3]
000000 50 f4 9c 3e f7 41 99 3e 2a 9a a6 3e
       0.30655146 0.2993314 0.32539493

image_encoder.encoder.0.mha.heads.2.key.weight f4 [3, 9]
000000 e6 99 6c be d7 8a 9f be 15 18 4f 3e f6 96 95 be
       -0.23105583 -0.31160614 0.2022403 -0.29216737
000010 57 6c 25 be 64 43 29 be 52 7a bc bd a4 10 54 bd
       -0.1615461 -0.16529614 -0.09203018 -0.051773682
000020 c4 d3 ad 3e e7 90 90 3b b5 2e 4f be 37 b2 03 3e
       0.33950627 0.004411805 -0.20232661 0.12860952
000030 2c a2 92 3b 7b c8 05 be bf 4c 79 3e 6f 54 47 bd
       0.004474899 -0.13064758 0.24345683 -0.048664507
000040 12 a7 8b be 75 82 3d 3e 1e 77 c5 be 15 84 b4 be
       -0.27275902 0.18506797 -0.38567442 -0.3525702
000050 6c 4f ee 3d 26 ed fa 3d b4 c9 21 be 07 7f e0 3e
       0.11636242 0.12252264 -0.157996 0.43846914
000060 de cc 94 3e d0 6c c3 bd 9d 44 6f bd
       0.2906255 -0.09542239 -0.058415044

image_encoder.encoder.0.mha.heads.2.key.bias f4 [3]
000000 38 ce 15 be 5e 42 46 be 07 34 08 be
       -0.14629447 -0.19361255 -0.13301097

image_encoder.encoder.0.mha.heads.2.value.weight f4 [3, 9]
000000 1c e4 0e bd c7 25 7b 3e ce fc 71 3e 10 6e 94 3c
       -0.03488551 0.2452613 0.23631594 0.018118888
000010 e4 5c 71 3d e5 60 48 3e d2 6f c7 be 67 96 bc bd
       0.058926478 0.19568212 -0.389525 -0.092083745
000020 2d ad c6 3e c5 26 9d 3e fc 88 b7 3d db ba fd bd
       0.38803998 0.3069364 0.089616746 -0.123891555
000030 dc b6 4a 3e 57 14 49 be ab 63 6a be d5 89 7b be
       0.19796318 -0.19636665 -0.22889583 -0.24564297
000040 3d 0b ce bd 42 5e 1b 3d f5 4c c7 bd e9 10 68 3d
       -0.10060737 0.037931688 -0.09731475 0.05665675
000050 cd 0e 72 bc e5 b3 27 3d d0 a3 7d 3e ef cb a5 3e
       -0.014774037 0.040943045 0.24769521 0.3238215
000060 8b ac 30 3e fd 6a 9a 3e cc ff 67 be
       0.1725332 0.3015975 -0.22656173

image_encoder.encoder.0.mha.heads.2.value.bias f4 [3]
000000 7e 74 97 bd 51 6d 67 bd 5c 05 3d be
       -0.07395266 -0.056500737 -0.18459076

image_encoder.encoder.0.ln2.weight f4 [9]
000000 3f 5d 82 3f 35 d1 81 3f a1 64 8c 3f 73 ba 78 3f
       1.0184706 1.014197 1.096821 0.971595
000010 ea a1 75 3f 84 d1 82 3f 8f 15 91 3f e2 19 81 3f
       0.95950186 1.0220189 1.1334704 1.0086024
000020 f4 bc 83 3f
       1.0292039

image_encoder.encoder.0.ln2.bias f4 [9]
000000 71 5f 90 bc a2 8a 87 3c 85 bc 47 bc 53 3c 17 3c
       -0.017623635 0.016545597 -0.012190943 0.009230691
000010 86 f6 66 3d ef 8b 25 bb c3 4e c3 3c a7 de 95 bd
       0.056387447 -0.002526041 0.023841267 -0.07317858
000020 db 5f 27 3d
       0.0408629

image_encoder.encoder.0.mlp.0.weight f4 [36, 9]
000000 4d 1b bd bd 02 60 64 3e 44 0e de bd cb 39 91 be
       -0.09233723 0.22302249 -0.10842565 -0.28364405
000010 98 28 f7 bd 0d 1b e1 3d 61 df a1 3b 6b e4 84 3e
       -0.120682895 0.10991488 0.004939959 0.2595552
000020 d2 d2 22 be 54 fe 8b 3c 71 9c 7e be 01 29 b5 3e
       -0.15900734 0.017089047 -0.24864365 0.35382846
000030 7d 71 aa 3e c4 cd 6a 3e 20 8c ec bd b3 44 bd 3d
       0.3328971 0.22930056 -0.11550164 0.09241619
000040 6d d2 dc bd f1 cc 20 bd c7 77 35 3c 27 3f 54 3e
       -0.10782323 -0.039257947 0.01107592 0.20727216
000050 88 0c 2e 3e 15 fe dd bd 82 66 7e 3d 01 30 1c be
       0.16996968 -0.10839478 0.062109478 -0.15252687
000060 a8 1d a1 3d d9 32 71 bc 52 1d e8 bd 26 dd 1b 3e
       0.078669846 -0.014721596 -0.113337174 0.1522108
000070 a1 e9 19 be 00 69 76 3e a4 61 4d be fa a9 0d be
       -0.15030529 0.24063492 -0.20056778 -0.13834372
000080 b1 18 31 be 88 b7 12 be b2 05 7c 3e 09 70 8d bd
       -0.17294575 -0.14327824 0.24611548 -0.06906135
000090 66 b9 9d 3e 75 b1 c3 be 35 2e 92 be 23 d9 8d bd
       0.3080551 -0.38221326 -0.28550878 -0.06926181
0000a0 28 c3 a2 bc 77 24 9a be ed 8a 48 3e f1 26 60 be
       -0.019868448 -0.30105945 0.19584246 -0.21889855
0000b0 63 35 6b 3e 5d 4e 83 bd e1 f1 1a be b3 77 3f 3e
       0.22969584 -0.06411431 -0.15131332 0.18698005
0000c0 86 a8 83 3e 74 e8 09 be 74 d8 f8 3d 6e 41 f9 ba
       0.2571451 -0.1346758 0.1215066 -0.0019016692
0000d0 ba ff d4 3d db 0e 0e 3e 80 9b 26 be 18 6e 16 bc
       0.104003385 0.13872854 -0.16270256 -0.009181522
0000e0 2f d2 25 be 65 9f 10 3e 10 18 de bc b6 a9 72 be
       -0.1619346 0.14123304 -0.027111083 -0.23697552
0000f0 d3 d0 ad be 4a 2f 76 3e b5 38 8c 3e 6d 17 c2 3d
       -0.33948383 0.24041477 0.27387014 0.09477124
000100 a6 0e b9 bd 52 f0 38 be 89 0a c9 bd f3 74 52 3e
       -0.09035997 -0.18060425 -0.098164625 0.20552425
000110 f1 fb a2 3e d9 ef 5b be d7 12 7d 3b 4d df 0e 3e
       0.3183284 -0.21478213 0.0038615966 0.1395237
000120 56 b1 86 bc 5e e5 5f be 62 dc 64 3e 6b 7b bf 3d
       -0.016441982 -0.2186484 0.22349694 0.09349712
000130 50 32 59 3d 35 fd b6 be cd 5d b4 be cb 2e 47 3c
       0.053026497 -0.35740057 -0.35227814 0.012157152
000140 63 12 bf be 20 44 8e 3e 28 4a 26 3e cf c1 86 be
       -0.37318715 0.2778635 0.16239226 -0.2631974
000150 37 e8 1a be 16 9a 95 3e 23 1f 38 3e 96 c5 af 3e
       -0.15127645 0.2921912 0.17980628 0.34330434
000160 23 ff 72 be 01 c3 36 3e 97 d2 e0 be f2 c6 1d 3e
       -0.2373014 0.17847826 -0.43910667 0.15407923
000170 88 7c 93 3c ee fa aa 3e 1b 6f 01 3e e8 96 7d 3d
       0.018003717 0.3339457 0.1264004 0.061911494
000180 38 1b 80 bd 89 fc 47 be c5 5b e3 3c 22 86 6c 3d
       -0.062551916 -0.19529928 0.02775372 0.057745107
000190 c7 85 e0 3d 3d 88 19 be 05 b2 84 3e 4c 2a 4f 3e
       0.10963016 -0.14993377 0.25917068 0.20230979
0001a0 ab 5e 5a bb 11 4e cb 3d 9c c4 e3 bd d1 44 3f 3e
       -0.0033320587 0.09926999 -0.11121485 0.18678595
0001b0 bd 2e f5 bd 04 8d 6d 3e b9 a8 11 be 70 d8 17 3d
       -0.11971805 0.23198324 -0.14224519 0.037071645
0001c0 bb 20 79 bc 59 f4 88 be e4 66 da 3e 1d d8 3e 3d
       -0.015205557 -0.26748922 0.42656624 0.04659282
0001d0 e1 cd 6a 3e bc 2d 72 3e 79 27 97 3e e1 d4 36 bc
       0.22930099 0.23650259 0.29522303 -0.011159153
0001e0 6f 96 57 be 69 1f 82 be 3b 4f af be 49 4b 97 be
       -0.2105348 -0.2541459 -0.34240136 -0.29549626
0001f0 58 e6 92 3d 89 bf ad be 60 c1 1d be be e1 2f 3e
       0.07172841 -0.33935192 -0.15405798 0.17175958
000200 b9 e4 a0 be f4 93 48 be 49 99 f4 bd 96 f3 ff 3a
       -0.31424502 -0.1958769 -0.11943299 0.001952755
000210 42 c1 c1 be c8 c8 29 bd 89 7d 6b 3e 2e df f2 3c
       -0.37842757 -0.041451246 0.22997107 0.029647436
000220 2c 1b 9c bd b9 64 55 3e 2c 69 9d bc c5 af 53 3e
       -0.0762237 0.20839204 -0.019215189 0.2067252
000230 16 20 8a 3e 9e 93 6a 3e d5 fd 40 be eb cf 33 3e
       0.26977605 0.22907874 -0.18846829 0.17559783
000240 ce 04 7c be a2 a2 ea 3d d9 15 be 3e 49 61 19 bd
       -0.24611208 0.11456801 0.37126043 -0.037446294
000250 93 fd c4 bd 7b 3a 88 be 5b 9b c3 3e c7 67 57 be
       -0.09618678 -0.26607117 0.38204464 -0.21035682
000260 7f 14 4b 3d 1a f6 40 be 78 f9 c5 bc 63 28 e1 be
       0.049580093 -0.1884388 -0.024166808 -0.43976125
000270 d9 be 4f 3e a0 6f 65 3e 18 09 41 be 25 7e c2 3c
       0.20287646 0.22405863 -0.18851125 0.023741791
000280 96 25 b6 be 09 74 c4 bd 3c 92 0a be 70 f6 73 bc
       -0.3557555 -0.095924444 -0.13532346 -0.014890298
000290 89 e9 24 be 74 57 7f 3e a7 dc fd bd 29 f5 cd bd
       -0.16104712 0.24935704 -0.12395602 -0.10056526
0002a0 62 74 ad 3d 14 62 55 bd 13 2d a9 be 31 36 14 3e
       0.08469464 -0.052095488 -0.330422 0.14473797
0002b0 98 47 79 be af 68 7c 3e 6d 18 76 3e a8 56 0e 3e
       -0.24343717 0.24649309 0.24032755 0.13900244
0002c0 50 3d 08 be c6 8d 8f bd 68 0d 24 be f2 0a 7c 3d
       -0.13304639 -0.07009463 -0.16020739 0.061533876
0002d0 ad 95 94 3e 8a 6d 99 3e 04 db d5 bd bc f1 84 be
       0.29020444 0.29966384 -0.104421645 -0.2596568
0002e0 92 7d 81 be 66 e3 9e 3e 0f 36 8e bc 8a 4d 2c 3e
       -0.25291115 0.31032866 -0.017359762 0.16826454
0002f0 29 4d 6e 3e 2f d2 80 3d f8 80 3d be ce 1c 82 3e
       0.23271622 0.06290089 -0.18506229 0.254126
000300 8b 5a 45 3d 09 f8 93 be 82 d0 35 3e d8 b6 63 3e
       0.04818205 -0.28900173 0.1775532 0.22237718
000310 86 0e 0e 3e 07 47 b4 be 23 38 02 be dd 63 9c 3c
       0.13872728 -0.3521044 -0.12716727 0.019090587
000320 e8 f5 a2 bd 21 c2 d8 bd 42 28 45 be ed f5 48 be
       -0.07957059 -0.10583902 -0.19253638 -0.19625063
000330 ef ea 8e be 05 4e 89 be 94 b3 46 3e cc 95 87 bd
       -0.27913615 -0.26817337 0.19404441 -0.06620368
000340 94 88 3c bd 01 9e 8a 3d 61 a3 46 be ec 8d 3a be
       -0.04602869 0.06768418 -0.19398262 -0.18218201
000350 64 c1 8b be 92 7b a1 be 05 e0 72 be eb ec 5e 3e
       -0.27295983 -0.3153959 -0.23718269 0.21770065
000360 37 7e 91 be b0 fe 94 3d 1a 72 1a 3e 38 95 06 3d
       -0.28416607 0.0727514 0.15082589 0.03285715
000370 08 65 38 3e e6 2d 81 3e cb 9d 7e be 19 38 1f 3e
       0.1800729 0.2523033 -0.2486488 0.15548743
000380 c6 c0 6f 3e bf 37 c4 3d 50 8c 97 bd e8 c9 fb bc
       0.23413381 0.09580945 -0.07399809 -0.030735925
000390 05 77 7e be 16 78 3d be 73 8c 9a 3d de bd 96 3d
       -0.2485009 -0.1850284 0.0754632 0.07360433
0003a0 91 7f 26 be 9d 2c 8a be e6 98 a1 3e 2b b6 88 be
       -0.162596 -0.26987162 0.31561965 -0.26701483
0003b0 6a 92 59 be 91 6a 0c 3d 47 b0 27 be 63 13 5d 3e
       -0.21247259 0.034281317 -0.16375838 0.21589427
0003c0 76 05 81 be 4a 53 c9 3c 14 c3 a1 3e 6d 8d 91 3e
       -0.2519948 0.024575848 0.31594145 0.28428212
0003d0 80 8e 83 be d5 df 7d be a5 11 4b 3e 53 1a 9f 3e
       -0.25694656 -0.24792416 0.1983095 0.3107477
0003e0 45 5e a6 3e 47 d0 d5 3c 2a 2e 78 be 50 25 73 3e
       0.32493797 0.026100291 -0.2423636 0.23744702
0003f0 15 43 a4 3e e1 fe 94 3d 0d 9a 75 3d 98 ea 54 be
       0.3208243 0.07275177 0.059961367 -0.20792615

image_encoder.encoder.0.mlp.0.bias f4 [36]
000000 f3 3e 57 be 5c 5f ba bd 36 11 6b 3e 49 e9 16 bc
       -0.21020107 -0.091002196 0.22955784 -0.009210893
000010 c7 25 7d 3d ba 6c 1c bd 82 a8 5d be 70 75 2a be
       0.061803605 -0.038189627 -0.21646312 -0.16646361
000020 df bb 89 be b3 9e 9a 3e 8a ac b5 3e 5a f6 b1 3c
       -0.26901147 0.30199203 0.354832 0.021723915
000030 3a 86 81 3e 17 fb 56 bd a1 e3 8a 3e 7a b9 ef bd
       0.2529772 -0.05248555 0.27126792 -0.11705299
000040 c7 e0 13 3e 74 45 0e 3e 62 c0 40 3e fc d6 d6 bd
       0.14441215 0.13893682 0.18823388 -0.10490224
000050 a5 6c 9a 3e a5 b5 95 be f2 32 64 be c3 03 8f bd
       0.30161014 -0.29240146 -0.22285059 -0.06983139
000060 27 56 51 3d 1d f0 6a 3d bc 20 00 3e 66 62 a3 3e
       0.051107552 0.057357896 0.12512487 0.3191101
000070 24 1c e7 bd f1 19 a0 be 5c 2e 17 be 09 a8 90 be
       -0.11284664 -0.31269792 -0.14763778 -0.282532
000080 f7 ad 7e 3e 78 ae b3 be 3a 6b 05 3e 94 e7 04 3d
       0.2487105 -0.35094047 0.13029185 0.032447413

image_encoder.encoder.0.mlp.2.weight f4 [9, 36]
000000 94 ef 07 3e c9 62 13 be 96 b4 fc bb b6 f5 b3 bd
       0.13274986 -0.14393152 -0.007711957 -0.087871
000010 10 24 cf 3d 4f b1 06 3d 8f 5f 87 bd eb 87 b5 3d
       0.101143 0.03288394 -0.06610023 0.08863815
000020 b7 98 58 3d 29 ed 78 bd 31 35 5c be cd a8 7d bd
       0.052880015 -0.06077305 -0.21504666 -0.06192856
000030 2b 5b 45 bd d3 4e 26 b9 5d dc 25 3d e5 14 18 3e
       -0.048182648 -0.00015860358 0.040493358 0.1485172
000040 80 48 87 be 69 2a 39 be 44 e6 56 bd 0d 44 0e bd
       -0.264225 -0.18082584 -0.052465692 -0.034732867
000050 40 af 8f 3d 0a 0c 25 3e 76 d1 d7 3d 8f a6 0a 3e
       0.07015848 0.16117874 0.105379984 0.135401
000060 e7 f5 1b bd 8c 4b 32 bd 1d 47 a8 3d 52 91 7a bd
       -0.038076308 -0.04352908 0.08216689 -0.061173744
000070 6a 8a 6a 3d f0 72 27 3e 82 38 1e 3d 1d 7b f1 3d
       0.05726091 0.16352439 0.03862811 0.1179106
000080 f9 43 e2 bd e7 a8 b9 3d d6 ba c9 bc d2 31 a5 bd
       -0.11048121 0.09065419 -0.024625223 -0.08066143
000090 e1 31 11 be 83 6b 6a bb ea 8b 7a be 6c f4 17 3e
       -0.14179184 -0.0035769648 -0.24467435 0.14839333
0000a0 ee 7f 6a bd a1 2d 58 3e cd 0f 42 3d 00 ab 04 3e
       -0.05725091 0.21111156 0.04737835 0.12955856
0000b0 be 1d 11 be 09 5b c1 bd 5f 39 0b 3e 35 0e be bc
       -0.14171502 -0.09441192 0.13596104 -0.023200134
0000c0 f4 74 e7 bd 81 0a e7 3d 6b 0f 13 3e 1f ac 01 3d
       -0.11301604 0.112813 0.1436135 0.031658288
0000d0 bb 7b de b9 cd 15 08 3d 7f 7a 12 be 12 e1 39 3e
       -0.00042435326 0.033223916 -0.14304541 0.18152264
0000e0 97 9a 5e bc f3 38 02 3e 2c 41 be 3d 5a e9 20 3e
       -0.013586662 0.12717037 0.09289774 0.15714017
0000f0 34 18 81 3d b6 3d e2 bd fe 99 5b 3e 8f 38 84 3d
       0.063034445 -0.11046927 0.21445462 0.064561
000100 61 5c 9f bd b7 80 f8 bd f6 45 c4 bd e9 91 4c 3c
       -0.07781292 -0.121339254 -0.095836565 0.01248596
000110 fc 10 8b bc b6 02 6a 3e 08 ab 17 bc 86 ed 5f be
       -0.016975872 0.22852597 -0.009257086 -0.21867952
000120 e2 1b c3 bd 5f 9d 0a 3e 2f 50 2d 3e f3 45 aa bb
       -0.095268026 0.13536595 0.16925119 -0.005196327
000130 d7 cd dd bd dc b1 28 bd d0 28 18 be 4b 5e c6 3d
       -0.108302765 -0.041185245 -0.14859319 0.09685954
000140 98 93 c0 3e 44 91 ee bd 60 54 6b be 70 91 e4 bd
       0.37612605 -0.11648801 -0.22981405 -0.111605525
000150 95 74 cf 3d eb ac 99 3d a5 67 33 bd 9f 36 01 be
       0.10129658 0.075036846 -0.043800015 -0.12618493
000160 78 b0 d4 3d f9 99 51 be 9d 76 7e bd cf fb a5 3d
       0.10385221 -0.20468892 -0.062124837 0.08104669
000170 4c da d9 3d 92 15 23 3e fa a6 84 b9 fb 40 0f be
       0.1063734 0.15926197 -0.0002530141 -0.13989632
000180 19 cd f7 3d 8d 0e ab bd e6 0f 1d be 90 71 1c be
       0.12099666 -0.08352385 -0.15338096 -0.15277696
000190 8a db 21 be c8 b3 45 be 2d 71 15 be 7c 47 0e bd
       -0.15806404 -0.19306862 -0.14593954 -0.03473614
0001a0 6b 82 48 3e 7c 14 a6 3d 07 57 de 3c 23 93 9b 3b
       0.19581 0.08109376 0.027141107 0.0047477647
0001b0 aa 06 d1 3c ed 0a 9a 3c 67 f2 c2 bd 69 b3 1b be
       0.025515873 0.018804038 -0.09518891 -0.15205158
0001c0 1b f1 02 be bd eb 9b bc 22 63 01 bd ec d6 7d bd
       -0.12787287 -0.019033307 -0.03158868 -0.061972544
0001d0 98 58 2b 3e a0 db 20 3e 16 36 93 3d cb d9 5a 3b
       0.16733015 0.1570878 0.071880504 0.0033393975
0001e0 7f a7 07 3e f6 ee bf bd 99 8a 47 bb 35 15 8d bd
       0.13247488 -0.0937175 -0.00304476 -0.068888105
0001f0 50 13 db 3d 89 21 58 3d 25 01 01 3e d3 59 21 be
       0.10697043 0.052766357 0.12598093 -0.15756921
000200 70 c7 4e 3d 8d d7 05 be 44 8a 3f bd 31 ed d0 3d
       0.050483167 -0.13070507 -0.04676272 0.10201491
000210 86 14 97 3d d6 18 83 bd f7 f1 cc bd c2 26 8e bd
       0.073769614 -0.064012215 -0.10007089 -0.06940986
000220 9b cc 3a be 8f 3c 1f be 52 09 ab 3d 50 50 01 3e
       -0.18242113 -0.15550445 0.08351387 0.12628293
000230 d4 c4 18 be b0 18 fb 3c d7 43 d5 3d 39 af 18 3e
       -0.14918834 0.03065142 0.1041333 0.14910592
000240 18 f8 20 3e 55 8b 22 3e 66 89 f1 3d 8e d7 53 3d
       0.1571964 0.15873463 0.11793785 0.05171924
000250 ab 08 c9 bd 03 88 51 3d 03 34 d0 3d 40 d9 e9 bd
       -0.098161064 0.0511551 0.101661704 -0.1141839
000260 fc 53 6d 3d 86 22 be bc 8a 4f 1b 3e 26 d4 fc bd
       0.057941422 -0.023209821 0.1516706 -0.123451516
000270 9c 3b 9a bd 42 e4 6c 3e c0 fa c1 3c 26 0b f6 3d
       -0.07530901 0.23133948 0.023679137 0.12013845
000280 ac 2f 37 bd f4 a7 5c bc 30 08 fe 3d ad 82 9d 3d
       -0.044723198 -0.0134677775 0.124039054 0.0769094
000290 10 a0 c7 3d 4f cb 94 bd dc 24 95 3d 90 bd 29 bd
       0.097473264 -0.072653405 0.07282421 -0.041440547
0002a0 cc b2 21 be a9 cb 30 3e 23 90 2d 3e 52 5c 3a 3e
       -0.15790862 0.1726519 0.16949515 0.1819928
0002b0 4f a3 99 3a 94 0a 13 3d 52 02 14 bc 09 a4 2a 3c
       0.0011721643 0.03589876 -0.009033756 0.010415086
0002c0 77 94 4c bb d9 19 65 bc a3 99 40 bc 03 f7 c5 3d
       -0.0031216422 -0.013983213 -0.01175538 0.09666254
0002d0 e6 e7 b0 3d 3a 2d 00 be 94 f8 09 bd a8 f2 02 3d
       0.08637981 -0.12517253 -0.03368433 0.031969696
0002e0 1a 9b 4b 3d bc 07 08 3c a5 57 80 bb 2b c7 06 3d
       0.049708463 0.008302625 -0.003916698 0.032904785
0002f0 16 de 10 3e 60 13 c3 3d fc f9 0e be 1d 3d 1c 3e
       0.14147219 0.0952518 -0.13962549 0.15257688
000300 ee 2c 67 3e 3b f7 49 3d b4 b5 e7 bd 70 86 ac bd
       0.22575733 0.049308043 -0.11313954 -0.084240794
000310 52 45 65 3e 20 4b 74 3e 7a a9 7b 3d b6 5e 97 bd
       0.22389725 0.23856783 0.061440922 -0.073911116
000320 bf 81 ec bd e7 67 f4 bd 3b 10 e3 bd f8 4e 8e bd
       -0.115481846 -0.1193388 -0.1108708 -0.06948656
000330 cb 49 9c 3c 86 e3 0a be 8d 2f c4 bd 6e 71 db bd
       0.019078156 -0.13563356 -0.09579382 -0.10714994
000340 cf e2 11 3e 33 9c 89 3d 74 df 16 bd 3a 4d 9b 3d
       0.14246677 0.06719246 -0.036834195 0.07583089
000350 2f a6 03 bd f4 a9 10 be 07 9f 4e bd 56 77 00 be
       -0.032140907 -0.14127332 -0.05044463 -0.12545523
000360 28 fb 3d bc ae b6 ce 3d 2e 48 2f bd cc de 08 3e
       -0.011595525 0.10093437 -0.042793445 0.1336624
000370 46 3a e7 3d 28 a7 83 3c 1d 5e eb 3d 25 76 20 be
       0.11290412 0.016070917 0.1149256 -0.15670069
000380 a3 fc 14 3d 12 37 18 be dc 39 1c 3d bf 63 f8 3d
       0.036373746 -0.14864758 0.038141116 0.121284
000390 26 80 3f be f4 d0 68 bd 9f 65 70 3d 5d 62 31 3e
       -0.18701228 -0.0568399 0.058690663 0.17322679
0003a0 0a 43 0c be a0 76 8e bd 7d b0 12 3e 0c 44 28 3e
       -0.13697448 -0.0695622 0.14325137 0.16432208
0003b0 23 fc 4a 3d 0e bb dc 3d 3f b9 1e 3d 97 79 0c 3e
       0.049556863 0.10777865 0.038750883 0.13718258
0003c0 7d 90 15 be ff 86 cc 3d a8 03 84 3d dd a6 10 3e
       -0.14605899 0.09986686 0.0644601 0.14126153
0003d0 7f 25 1c bd 78 8f ed 3d 45 ed ee 3d 58 83 42 3d
       -0.038121697 0.1159963 0.11666349 0.04748854
0003e0 7b c7 0c be 7e e3 fb 3d 07 b3 4c 3d 42 81 a2 3c
       -0.13747971 0.1229925 0.04997542 0.019837026
0003f0 7e 76 25 be 0f 7e 01 3e b1 7f ce bd f8 23 0c 3d
       -0.16158482 0.12645744 -0.10082949 0.03421399

image_encoder.encoder.0.mlp.2.bias f4 [9]
000000 f1 42 cf bd dc 38 d0 bd 6f 2a 85 bd ea ba 9b bd
       -0.1012019 -0.10167095 -0.06502234 -0.076040104
000010 c0 47 1e 3e 64 5c 53 bd 81 7d 98 bd 4a 32 1c be
       0.15457058 -0.051601782 -0.07445813 -0.15253559
000020 55 ff fa 3d
       0.12255732

image_encoder.encoder.1.ln1.weight f4 [9]
000000 f1 cc 8a 3f bb ea 87 3f 32 36 89 3f cd 57 88 3f
       1.0843793 1.0618509 1.0719664 1.0651795
000010 0d 87 83 3f 2d 36 87 3f 46 67 94 3f 52 6f 81 3f
       1.0275589 1.0563408 1.1594017 1.0112097
000020 62 d2 6a 3f
       0.9172727

image_encoder.encoder.1.ln1.bias f4 [9]
000000 be d4 55 3c d9 95 e8 3b df e5 d5 ba 63 40 07 bb
       0.01305121 0.0070979414 -0.0016319117 -0.0020637743
000010 11 d6 9f b9 95 e5 ca bb 21 b1 6b bd d3 39 e6 ba
       -0.00030486335 -0.006191919 -0.05754197 -0.001756484
000020 85 b4 06 bc
       -0.00822175

image_encoder.encoder.1.mha.W_o.weight f4 [9, 9]
000000 d4 49 3f be 07 21 87 3e 0e 37 a9 3e 9c cd a7 be
       -0.18680507 0.26392385 0.33049816 -0.32774055
000010 04 02 a5 3d 05 9d bf be 2f b2 96 3e 4c 2d 69 be
       0.08057025 -0.37424484 0.29432818 -0.22771186
000020 3c d9 91 3e 20 8c dd 3c 4d c5 1c bd 5a a2 b2 3e
       0.2848605 0.027044356 -0.0382741 0.3488949
000030 95 b1 6d bd 1d bb ea 3e 05 a9 94 3c 97 4d 57 3e
       -0.058030684 0.4584588 0.018147001 0.21025692
000040 b9 33 21 3e 9f 14 78 3d 6b 42 af 3e bf 8a b5 be
       0.15742387 0.06056654 0.3423036 -0.35457417
000050 4f 5e 23 3d 74 a7 d3 3d 2c a2 89 3e 76 09 50 be
       0.03988486 0.103346735 0.2688154 -0.20316109
000060 98 a2 3b be 7c b8 23 3d 31 48 0d 3e bb 2e a1 be
       -0.18323743 0.03997086 0.1379707 -0.31480965
000070 bf 5c 67 3e 8c 78 cb bd 47 e5 11 be d0 06 91 3e
       0.22593974 -0.09935102 -0.14247619 0.2832551
000080 63 87 48 3d 8c 25 95 3d 74 db 65 bd 26 ac 87 be
       0.04895724 0.07282552 -0.05611749 -0.26498526
000090 ac 8d 04 3d 54 d0 9c be f0 d1 93 3e 8b 6c b2 be
       0.03236167 -0.30627692 0.28871107 -0.34848437
0000a0 1b c9 08 3e 89 9c 75 be 4d 9f 78 be 7b 3b 5b 3e
       0.13357966 -0.23985495 -0.24279518 0.21409409
0000b0 9a d4 b5 be 1e f9 5b be 40 7a b0 be 40 cb 6c be
       -0.35513765 -0.2148175 -0.3446827 -0.23124409
0000c0 f2 25 d0 bd 8c 95 cf 3d d8 8a 41 bd 7f 85 95 3d
       -0.101634875 0.10135946 -0.047251552 0.07300853
0000d0 87 90 2c bd 3b 4a 2f 3e 13 f0 77 be c9 5c 9c 3e
       -0.04213002 0.1711816 -0.24212675 0.3053954
0000e0 7f d8 48 3e a4 1a a5 3e c5 f6 72 bc f1 1b 99 3e
       0.19613837 0.32246888 -0.014829342 0.2990413
0000f0 d2 4b 96 3e b8 04 e0 3d 2f 07 60 bd 31 eb ab be
       0.2935472 0.109384 -0.05469435 -0.33577874
000100 48 82 5a 3e 9f a5 de 3c 6e fe 0c bd d6 3c 5c bd
       0.21338761 0.027178584 -0.03442233 -0.053768955
000110 54 27 02 be f9 e6 0f be cf f9 c0 3d ff ee 3b 3e
       -0.12710315 -0.14052953 0.09422647 0.18352889
000120 db 0e 3d be f9 8f 54 3e 07 24 75 3e d2 5d 96 bd
       -0.18462698 0.20758046 0.23939525 -0.073421136
000130 31 4a ea bd 50 24 0d be f0 17 ac be ac cf 90 be
       -0.11439932 -0.13783383 -0.33612013 -0.2828344
000140 21 0c a7 bd
       -0.0815661

image_encoder.encoder.1.mha.W_o.bias f4 [9]
000000 96 90 8d 3e 23 fd 5e 3e 24 63 21 3e f6 c3 1d 3e
       0.27649373 0.21776251 0.15760475 0.15406784
000010 57 2b 89 be da f6 ce bc 2d 12 15 3e 09 6c b3 bd
       -0.26790878 -0.025264192 0.14557715 -0.087608404
000020 d2 88 10 3e
       0.14114693

image_encoder.encoder.1.mha.heads.0.query.weight f4 [3, 9]
000000 39 dc 42 3e c8 61 f4 3d e8 70 d1 bd d6 14 bc 3e
       0.19029321 0.11932713 -0.10226613 0.36734647
000010 04 68 ec 3c ec 18 1f be 10 fa db be f7 26 f2 3d
       0.028858192 -0.1553685 -0.4296422 0.11823838
000020 05 3a 16 3e 70 27 97 be 18 28 7b be 23 c1 8b 3e
       0.1467057 -0.29522276 -0.24527013 0.2729579
000030 0c 23 b5 3e db b3 4c 3e 59 60 99 be 75 89 6a 3e
       0.353783 0.19990484 -0.2995632 0.22903998
000040 11 c8 7f be 3b 3b 38 be 09 67 87 be 33 af 84 3e
       -0.24978663 -0.17991345 -0.26445797 0.25914916
000050 b0 1d 4b 3e bb 3a 4e bd 90 0a 24 bd b2 d1 f1 3d
       0.19835544 -0.05034898 -0.040049136 0.11807574
000060 00 71 85 be 45 8c b0 bd 44 c3 c2 3e
       -0.26062775 -0.08620504 0.380396

image_encoder.encoder.1.mha.heads.0.query.bias f4 [3]
000000 04 58 47 3e 93 d9 e9 be 79 75 3d 3e
       0.19467169 -0.45673808 0.18501844

image_encoder.encoder.1.mha.heads.0.key.weight f4 [3, 9]
000000 3b 0e 9b be 41 85 44 3e 16 50 c3 bd ae 39 b9 3e
       -0.30284294 0.19191457 -0.095367596 0.3617682
000010 d6 81 a8 3e 47 cf 87 be 0e 77 4a 3e 22 5c 42 be
       0.32911557 -0.26525328 0.19771978 -0.18980458
000020 8b 4f 47 3c 6f c9 2a be f8 50 1e 3e 95 bd 97 bc
       0.012164961 -0.16678403 0.15460575 -0.018523017
000030 e6 b5 17 bc 0f 96 9b 3e fa de 09 3e a8 40 e2 be
       -0.009259677 0.30387923 0.13463965 -0.44189954
000040 b1 84 32 be 11 97 1d be cd 6c 87 3e d7 2c 51 be
       -0.1743343 -0.15389659 0.26450196 -0.20427261
000050 36 e2 6e 3e 90 42 0b 3d 99 a7 ee 3c 00 27 39 be
       0.2332848 0.033999026 0.029132651 -0.18081284
000060 0a 09 45 be 69 ce 75 be 3e 60 a9 be
       -0.1924173 -0.2400452 -0.3308124

image_encoder.encoder.1.mha.heads.0.key.bias f4 [3]
000000 c8 d6 96 bc 7c 58 31 be 59 1b fd 3d
       -0.018412963 -0.1731891 0.12358732

image_encoder.encoder.1.mha.heads.0.value.weight f4 [3, 9]
000000 7f 7b fd 3d 1e 1d bd bc ce fb 38 3e b8 b8 bb be
       0.12377071 -0.023085173 0.18064806 -0.36664367
000010 2e 42 d9 3d ee 6b 1e be c1 fb 0e 3e c7 8c 7e 3d
       0.10608326 -0.1547086 0.13963224 0.062145974
000020 47 7d 8c 38 d7 b7 09 be 55 b7 c0 3d 22 5c 08 3e
       6.699055e-05 -0.13449036 0.09409968 0.13316396
000030 80 19 ab 3e f9 ca 31 be 01 5b e2 bc a6 ee 19 3e
       0.33417892 -0.17362584 -0.027631285 0.15032443
000040 ce 7b 37 be ce 8f 3d 3c a8 87 a1 be 9a af 8b 3c
       -0.17918321 0.01156993 -0.3154881 0.017051507
000050 cd 32 83 3e ff 13 be 3d 63 c7 e9 3c 7f 86 35 3e
       0.25624695 0.09281158 0.028537458 0.17727087
000060 a2 61 0a 3e f5 84 9a bc 00 b6 f2 3d
       0.13513806 -0.018862227 0.1185112

image_encoder.encoder.1.mha.heads.0.value.bias f4 [3]
000000 96 27 5e 3e 7d 38 0a be 82 97 4c 3e
       0.21694788 -0.13498111 0.1997967

image_encoder.encoder.1.mha.heads.1.query.weight f4 [3, 9]
000000 81 49 17 be ed d6 97 3e 9d 89 86 be 2c 66 f0 3d
       -0.14774133 0.29656163 -0.26276866 0.11738238
000010 b8 91 b9 bc 3b b4 ba 3c 88 2f 9d bd a9 8d 02 3e
       -0.022652492 0.022791019 -0.076750815 0.12749352
000020 c2 ce 8a 3e 1d ed ad 3e f9 b2 10 bf 11 fa 42 be
       0.2711087 0.33969966 -0.5652309 -0.19040705
000030 95 61 d4 bd 25 af 82 3e b6 d6 9f bb e6 d7 bc 3e
       -0.10370175 0.2552425 -0.0048778905 0.36883467
000040 d6 ac 8f be 5f 51 03 be 9a 7f 25 3e 65 7a 77 3e
       -0.2806155 -0.1282401 0.16161957 0.24167784
000050 1a 76 7f 3e a3 f7 19 3e 4e 06 ad bd ff 64 e5 3d
       0.24947396 0.15035872 -0.08448468 0.11200904
000060 3d 1e a2 be a9 28 60 3e e1 80 d5 bd
       -0.31663695 0.2189051 -0.10424972

image_encoder.encoder.1.mha.heads.1.query.bias f4 [3]
000000 52 89 49 be 0f 7d 78 be a1 6c 53 3d
       -0.1968129 -0.24266456 0.05161727

image_encoder.encoder.1.mha.heads.1.key.weight f4 [3, 9]
000000 1f 77 80 3d f1 0c 89 bd 50 4c 5e be 04 8d bb 3c
       0.062727205 -0.066919215 -0.21708798 0.02289439
000010 60 cb 3d 3e 61 55 de bd 14 4a 3c be c6 e5 4e 3e
       0.18534613 -0.108561285 -0.18387634 0.20204839
000020 87 e2 8b 3d 4e 68 79 3e 88 7b c2 be ad d1 9e 3e
       0.06830316 0.24356195 -0.37984872 0.31019345
000030 66 c5 55 3e 64 90 a6 be fd 65 1c 3d 59 48 73 bc
       0.20876083 -0.32532036 0.0381832 -0.014848792
000040 7b 4e 11 3f a0 28 db be 7f f3 1f 3e 1e df 97 3e
       0.56760377 -0.42804432 0.1562023 0.29662412
000050 4e 80 86 be 2f 2c 16 3e c9 68 e7 bd e0 19 95 3e
       -0.26269764 0.14665292 -0.11299283 0.29121304
000060 e5 38 7e 3e eb 60 07 be b7 db 1e bc
       0.24826391 -0.13220565 -0.009695939

image_encoder.encoder.1.mha.heads.1.key.bias f4 [3]
000000 6d 21 33 be 99 b0 54 3c c7 81 72 3e
       -0.1749322 0.012981557 0.23682319

image_encoder.encoder.1.mha.heads.1.value.weight f4 [3, 9]
000000 33 f2 a5 3e f2 84 ae bd 92 21 21 3e d7 83 fb 3d
       0.32411346 -0.08521451 0.15735462 0.12281006
000010 a1 38 22 3e 73 47 ad 3d 34 45 a5 bc 30 99 23 be
       0.15841915 0.084608935 -0.0201746 -0.15976405
000020 20 bc 90 3d 49 80 9e be dc a6 ac be 0c d9 e1 3d
       0.07067132 -0.3095725 -0.33721054 0.110277265
000030 13 fd 86 3e 48 9e b5 be 5e 84 53 3d d0 e7 a5 3d
       0.26364955 -0.35472322 0.051639907 0.08100855
000040 3f e5 57 be 30 3c 00 3e 18 e3 96 bd 1b b7 a9 be
       -0.21083544 0.1252296 -0.073675334 -0.3314751
000050 2b 5d 42 3e c5 1c f2 3d fd 18 2a be 96 41 cb 3c
       0.18980853 0.118218936 -0.16611095 0.024811547
000060 46 02 06 be 63 35 98 be 95 37 85 be
       -0.13086805 -0.2972823 -0.26018968

image_encoder.encoder.1.mha.heads.1.value.bias f4 [3]
000000 18 4a 94 bb 7e 57 58 3d a0 63 76 3d
       -0.004525434 0.052817814 0.060153604

image_encoder.encoder.1.mha.heads.2.query.weight f4 [3, 9]
000000 4f de 70 3e de ac 59 3e 7b 30 be 3b bb c4 22 be
       0.23522304 0.2125735 0.005804119 -0.15895359
000010 73 30 a7 3d d2 cc 31 3e de e5 ee be 41 15 bc 3d
       0.08163538 0.17363289 -0.4665975 0.09183741
000020 6f ea 5c 3e 6e 8b 68 be 16 67 b7 3e 36 09 b4 bc
       0.21573804 -0.22709438 0.35820836 -0.021977048
000030 b7 dc 90 3e ce 05 89 3e d3 1d a2 3d 32 00 59 be
       0.28293392 0.2676224 0.07915845 -0.21191481
000040 b1 5d b8 bd 03 21 dc 3d 75 8f 4f 3e 1b 7c 08 be
       -0.09002245 0.10748484 0.20269568 -0.13328592
000050 ae 17 14 be d0 5a b4 3e ad ba 6e bd 84 a5 9d 3e
       -0.14462158 0.35225534 -0.058283497 0.3079034
000060 e4 b3 26 bd 71 be b7 be bd f5 b3 be
       -0.0406989 -0.35887483 -0.3514842
